coronamodel.tflite (tflite, 855676 bytes, 9 tensors)

sequential/conv2d/BiasAdd/ReadVariableOp f4 [32]
00000000: 3224 9f3a 8e08 9dbd 9d65 b0bd 1892 cfbd
00000010: 176f 303b 69d7 7ebb 956d d43c 6c63 cb3c
00000020: 78d0 4bbb 37e6 d5bc 0986 a13c 24bc da3c
00000030: 3f10 a13c 42d6 4e3b 3176 5fbd 51ce c3bd
00000040: 17c0 13bc 3e55 65bc 4678 36be f0ec f8bb
00000050: 32e2 6ebe d8ea 0abd b3c6 293d 9c54 f5bd
00000060: a3a2 9e3c 6eb4 6bbc f084 b23b 6699 dc3c
00000070: 15fd 173b 9e9b 07be 49e9 9a3b 1db8 83bc
0.0012141524 -0.07667647 -0.08613131 -0.10135287 0.0026921683 -0.0038885719 0.025931159 0.024827681
-0.00310996 -0.026110752 0.019717233 0.02670104 0.019661067 0.0031560813 -0.054556075 -0.09560836
-0.009017966 -0.013997374 -0.17819318 -0.0075966045 -0.23328474 -0.03391537 0.04144926 -0.119790286
0.01936466 -0.0143862795 0.0054479763 0.026928615 0.002319162 -0.13242957 0.004727517 -0.016079003

sequential/conv2d_1/BiasAdd/ReadVariableOp f4 [16]
00000000: deb4 a8bd 975c fcbc 05ae 7abc cb65 47bd
00000010: 2b0d 9bbc bc49 b8bd e2e0 a83b 1512 ee3c
00000020: ee8a 45bd 7b8e bbbb 4b35 b7bd c7e9 dcbc
00000030: 4f41 91bd 2428 69bd 34b0 b1bd 7cd4 03bd
-0.08237623 -0.030805869 -0.015300279 -0.04868106 -0.018927177 -0.08998439 0.0051537612 0.029061357
-0.048228197 -0.005723772 -0.08945712 -0.026966942 -0.07092535 -0.056923047 -0.08676186 -0.032185063

sequential/conv2d_2/BiasAdd/ReadVariableOp f4 [16]
00000000: b6d7 013d 3f70 24bc 8e77 07bc bbee 383c
00000010: 04c4 27bd b78d 263c 7286 403d 116f 11bd
00000020: 7daa 313c 8dc2 a13c 5b60 e1bc 5f72 c0bc
00000030: 9d7f 2dbd 6457 32bc fd41 903d 5af5 02bd
0.03169986 -0.010036527 -0.00826825 0.0112873865 -0.04095842 0.010165623 0.047003217 -0.03550631
0.01084387 0.01974609 -0.027511766 -0.023492036 -0.04235803 -0.010885093 0.07043836 -0.031972267

sequential/conv2d/Conv2D f4 [32, 3, 3, 3]
00000000: 3961 663d 036a 22be a476 07be 52b8 f53c
00000010: 0fcf f63d eb9a da3d 56b9 dbbc e467 883d
00000020: 7935 d73d d1c0 28bd 4b93 b8bd ff09 bdbd
00000030: f2e1 21be 51ca fbbc 8012 16bd 858a 4c3d
00000040: 106f 93bd 5a0c b13d c8a8 45bd e83f afbd
00000050: 8ad2 2fbd dddf 763c b1c4 f33d 1c6d 0a3e
00000060: 0241 5abc 6fdb 0d3e aae7 a53c de66 23bc
00000070: ecf7 0d3e 6860 00bc c6e8 9a3c 5e8c a2bd
00000080: afee 0ebc b6e9 54bd 83e4 a5bd 50fb 29bd
00000090: 9f9f 373e 5551 1d3e 9670 003e ff5a dd3a
000000a0: cb5c 8fbd 2f91 e0bd c54b 953d 267d 043e
000000b0: 3fd0 0dbe 7f27 c83c 507b c03d 4eec f13d
000000c0: 72f2 48bd 6ec1 bbbd 5863 903d 81f4 183d
000000d0: c058 08be 70e5 05be e559 113d b640 8d3c
000000e0: 6c4f a839 be9b 023e 2e47 2bbd 50e6 f33d
000000f0: 2f83 a73d 66cb f7bc b7c6 9d3d aa30 c6bd
00000100: 40b9 b43d 6e53 d5bd 6d36 833d 3c47 cabd
00000110: 26b5 6abd a43f b53b 543f bf3b 9167 adbd
00000120: c6ac c6bd a94b 1a3d 4588 1abe 54f5 b6bd
00000130: 0455 9f3d 4e5e fbbd 09ff 153e 2ffc 013e
00000140: 87b6 0d3e bf38 813d c26b a23d 7904 3cbc
00000150: 6d51 163e 25c3 253d e3dc e1bd 1a2f 0e3e
00000160: 8973 da3d 22f0 eabb 3c8e 0e3e a12f 1f3e
00000170: 7c4b f13c 7ed8 733d 2094 b53c c583 813d
00000180: d5fa 303d e830 67bd 15d5 61bd ea82 ca3d
00000190: a3fc 5cbd d402 d2bd 1298 98bd 8096 2f3d
000001a0: 27c2 043e d663 803d 7bd4 ab3d b720 abbd
000001b0: 44b0 4b3d eed9 2a3d 28be 143e 8476 23be
000001c0: cea3 af3d ba7d 63bd adc4 0a3c 9ceb 163e
000001d0: b569 c83d 3107 8ebd 9d8a ff3d 846d 41bd
000001e0: 4c56 11be d7c8 ff3d bb7e d4bd 844b b33b
000001f0: 04ce d3bc 6a6b 5abd 9348 483d 3799 29be
00000200: cb2b d9bd 0e77 a63d d4d8 a73d 8f39 6a3d
00000210: 772c 703d 64a4 cebd b7bd 81bd 6564 9cbd
00000220: e771 d23d 488c 873c 56cf db3d 9942 f73d
00000230: 8a36 c63d 5629 20be 5506 15be db05 88bd
00000240: f62b 69bd 9a83 793d 326e 3cbe fbf3 a83c
00000250: 8fa8 993c 8008 e73c 14b1 17bd afe7 473d
00000260: 45f6 72bb 5a44 21be 1052 ac3d 5f40 073d
00000270: 9a9e 40be 9c45 423d e9d3 93bd 3ad2 9e3d
00000280: c70c 87bd e335 053e 9c26 9ebd 8508 853d
00000290: f5da adbd a737 f63d e9bd d93d f8f8 903b
000002a0: c7cd 4d3e bdbc 2c3e 3cff e23d 8002 5cbd
000002b0: 72fa c4bd 4366 9cbb 88a1 ab3d c7ce 953a
000002c0: 9cd8 663b a8ad d2bb 584f 33bd 4cde 20bd
000002d0: 3115 22bd 375b 1e3e 0bf3 e43d 437d d3bd
000002e0: 45d7 cbbd 8701 d4bd 0a08 e4bd 48b5 c1bd
000002f0: 15db 0fbe dc10 adbd 2ebf a13d f271 473d
00000300: 2ca0 5bbd 8fd1 eb3c e661 02be a893 be3d
00000310: a06e f83d becb a4bd 6d29 bebd 8725 8abd
00000320: e370 aa3d 2e86 223e c960 46bd e9d2 b73d
00000330: c219 0d3d df25 f8bd 0b6b d63c 5a08 2cbc
00000340: 8cbc 81bd bceb dfbd 2f5e 3b3d 1698 cc3d
00000350: b236 c2bd 0650 bbbd f764 04bd f27b cdbd
00000360: 60fe dbbc 836a 26bd 30c6 a9bd 440e 563c
00000370: 8571 cebd 6186 c63d 96f5 2cbe 01b6 8dbd
00000380: d833 b1bd e51e 013d 6cb9 4dbb 81c2 6dbd
00000390: d1e2 06bd 57bf 4c3d 0153 983d 0304 1ebe
000003a0: 1427 08be d7f3 33bd 046b d8bd 9853 a23d
000003b0: a5aa f93d 47b3 f43d 9858 a83c 0d9f 593d
000003c0: c678 ca3d 02b6 393d 48a7 643d 37dc 24be
000003d0: b943 ed3c 901d 7cbd 09e7 803d e4c2 9c3d
000003e0: 6d93 223e ab69 75bd 570b 65bd b248 f13d
000003f0: 516d 09be b2cf e13d 1e1e f5bd 4581 25bd
0.056245063 -0.15860753 -0.13228852 0.029995117 0.12051212 0.106740795 -0.026821773 0.066604406
0.10508246 -0.04119951 -0.09012469 -0.09230422 -0.15808848 -0.03073612 -0.036638737 0.04993679
-0.07198918 0.08644934 -0.048256665 -0.08557111 -0.042925395 0.015068022 0.1190275 0.13518184
-0.013321163 0.13853239 0.020252068 -0.009973256 0.13864106 -0.007835485 0.018909823 -0.07936929
-0.008723899 -0.051980697 -0.08100226 -0.041499436 0.17931984 0.15363057 0.12542948 0.0016888081
-0.07000121 -0.109651916 0.072898425 0.12938365 -0.13848971 0.024432896 0.0939852 0.1181265
-0.04905934 -0.09167753 0.07050198 0.037342552 -0.13315105 -0.13075805 0.03548612 0.01724277
0.0003210263 0.12754723 -0.04181593 0.11909163 0.08179318 -0.030248355 0.077039175 -0.09677251
0.08824396 -0.104163036 0.06406865 -0.09876868 -0.057301663 0.005531268 0.0058364067 -0.08467019
-0.09700923 0.03766981 -0.15091045 -0.089335114 0.07779887 -0.122738466 0.1464807 0.12693857
0.1383916 0.063096516 0.079307094 -0.011475676 0.14679499 0.040469307 -0.11028459 0.13885155
0.10666568 -0.0071697393 0.13921446 0.15545513 0.029454939 0.059532635 0.022165358 0.06323961
0.043207962 -0.056443125 -0.05513485 0.09888251 -0.05395187 -0.10254446 -0.0745088 0.042868137
0.12964688 0.06269042 0.08390137 -0.08355849 0.049728647 0.04171174 0.14525664 -0.15963179
0.08576165 -0.055539824 0.008469743 0.14738315 0.09785787 -0.069349654 0.1247761 -0.047223583
-0.14193076 0.12489479 -0.103757344 0.0054716486 -0.025855072 -0.053325094 0.048897337 -0.16562353
-0.10604056 0.08128177 0.081956536 0.0571838 0.058636155 -0.10089949 -0.06335013 -0.07636336
0.102756314 0.016546384 0.107329056 0.12073249 0.09678371 -0.15640768 -0.14553197 -0.06641742
-0.05692669 0.06091652 -0.18401411 0.020624151 0.018757133 0.028202295 -0.03703411 0.048804935
-0.0037073058 -0.1574873 0.0841409 0.033020373 -0.18810502 0.047429666 -0.07218153 0.07754941
-0.06594234 0.13008837 -0.07722208 0.064957656 -0.08489028 0.120223336 0.106319256 0.0044242106
0.20098029 0.16868873 0.11083838 -0.05371332 -0.09618081 -0.0047729327 0.08380419 0.0011429422
0.0035224324 -0.006429393 -0.04377684 -0.0392745 -0.03957099 0.15464483 0.11179169 -0.10326626
-0.09953169 -0.10351854 -0.11134346 -0.09458405 -0.14048417 -0.08450481 0.07897793 0.04869265
-0.05361955 0.028786449 -0.12732658 0.09305507 0.12130475 -0.08046673 -0.09285245 -0.06745439
0.08322313 0.15871498 -0.048432145 0.08975775 0.034448393 -0.12116598 0.026174089 -0.010500038
-0.063347906 -0.10933635 0.045744117 0.099899456 -0.094830886 -0.09146123 -0.03232285 -0.10033406
-0.026854694 -0.04062892 -0.082897544 0.013064925 -0.10080246 0.096935995 -0.16890559 -0.0691948
-0.086524665 0.031523604 -0.0031391038 -0.05804682 -0.032931153 0.049987163 0.07437707 -0.15431218
-0.13296157 -0.043933716 -0.105672866 0.079261005 0.12190751 0.11948257 0.020550057 0.0531302
0.09886317 0.04533959 0.055823594 -0.1609963 0.028962957 -0.06155163 0.062940665 0.0765436
0.15876551 -0.059915226 -0.055919018 0.11781444 -0.13420607 0.11025943 -0.11968635 -0.040406484

sequential/conv2d_1/Conv2D f4 [16, 3, 3, 32]
00000000: f2c5 213c 9f0a 68bd 945a 1a3e cdc2 9cbd
00000010: e988 a43d 5bfb 4abd 2267 eebd d8c5 0ebe
00000020: b2aa 02bc 06b5 683d 13bd b7bd 21c2 733e
00000030: 8aeb 3f3d f3ef 913d 3964 033e 39af ac3d
00000040: 6702 cbbc 3976 96bd 8387 a73d c31a 04bd
00000050: 37ec 0a3e 3aea 273d 531e 1b3e 2d65 493c
00000060: 7c21 883d a76f 0bbe 2a9c 7f3d 3b50 e53d
00000070: e2b5 b6bc a218 bbbd d888 42bc d69e b63d
00000080: 1c1d debc 05e3 293d b057 883d ab69 883d
00000090: 60f3 86bd d9f3 e13d 9a1d 1e3a 929b af3d
000000a0: f690 98bc 489c a83d bdc2 20bd 6e16 ed3d
000000b0: 576e 45bd 4d15 2e3e 90f0 91bd cea2 35bd
000000c0: 231e 3e3e 7dd3 18be 03d3 8e3d af48 0f3e
000000d0: 6cea 25bc c4f4 e33c 8937 c4bc 7147 71bd
000000e0: 639a 243e 8a13 23be 3a11 373d 9baa c5bb
000000f0: d981 2a3e d86c 7f3d 3268 f13d 4715 3f3e
00000100: 6a3b c43d ee48 323d b951 ee3d 4564 003e
00000110: 7f75 d33d 2e79 443e 4ae4 673c a1d7 39bc
00000120: 5c59 5c3e e4c4 1dba 4d51 e8bd 15b5 3c3e
00000130: d410 9cbd 915c e33d 5543 e53d 6399 89bd
00000140: b63f c0bc a556 143b 222f 133e fb85 803b
00000150: 1482 383d 5185 75bd 47a4 743e 0753 f139
00000160: d580 0c3d df64 e3bd 80ad 4c3e 0624 2f3e
00000170: 4ed0 093e f8f5 db3d c0d3 393d a4fe a5bc
00000180: 4401 613d 49ac 37bd 649f ba3d facb 133d
00000190: f47c 6e3d 46df 9a3e e3ff d43d fdfa 193e
000001a0: 6731 9e3d 46d0 ae3d 03c5 723d ce2d 633e
000001b0: 2a2b 3d3e 452d 3b3e 2086 353e 8731 aabc
000001c0: ecdd 083d 0dc4 203e 729d 8c3d 8261 60bd
000001d0: 5447 d6bd 1f62 ef3c 6e0f 953c 2e1e 2abc
000001e0: fe78 443d acc7 823e 4233 233e 1660 253e
000001f0: 2161 543e ae6e ed3d 0cee 0dbd 9f3a 833d
00000200: 494f ea3c 50bf 3b3e a486 583d 79c8 e53d
00000210: 620d 3e3e ff7c 6b3d f053 873d 7080 8ebc
00000220: e10c 433c 744f 8c3d 0267 0bbe 7ec5 c73c
00000230: 06bb b3bd 32bc ac3d 06a0 e13d 3d95 c2bc
00000240: d999 893d 1111 d33d 87af dc3d 8ecf 5d3e
00000250: ed60 003e f4ce 32bd 30e6 6a3e b4d0 0d3d
00000260: c3c7 4c3e 3f3a 863d f442 103e 521f d1bd
00000270: bca0 50bb e1d1 3c3d 6f19 9b3d 5b2d f0bb
00000280: 50b6 873d abc2 733d 1617 25bd fbb5 183d
00000290: 5f17 7fbd 550d a0bc 5685 223e 6ace d13c
000002a0: be94 463e a7f4 cb3d 9458 d73d 97d6 233e
000002b0: 5651 cb3d 23aa 3b3d 748d aebc ea6c 133d
000002c0: 6608 df3d de51 663c 6407 96bd 0978 103e
000002d0: 99df a03c 30c7 603d da75 143e 963b 83bd
000002e0: 9500 753d 2365 c43d 22b8 5ebb 3726 ff3d
000002f0: b834 c73d 586e 263c c7fb 33bd 1f6c 393c
00000300: c6fc 803d aa55 a23d 0585 78bc 748f 30bd
00000310: a1db 2f3e 6a47 1c3d bec0 4f3e ac28 8c3b
00000320: 1621 b8bd 7bbb 293d 4f13 693d 879b 0dbc
00000330: 9f62 9f3d 1626 76bc fd1b 203d 28dd ebbc
00000340: 1f2f 3a3e 65b5 1d3c d7f3 babb 2a82 903d
00000350: b60e 723d 7d58 99bc 06a9 d5bb a626 0abd
00000360: e490 99b7 d7d2 883d f799 023d 47aa c3bd
00000370: ec09 e4bd a93b 98bc 4420 3dbd 2cb9 013e
00000380: 189e fd3d 41a9 86bd 275c 6fbd 5f41 ce3c
00000390: f532 0d3c 3590 263d 36b6 253e 4e19 0d3e
000003a0: 04c4 b6bb 9bc8 cf3d f853 08bd e1f1 f23d
000003b0: 7e6d c33d fddb 413d 75c8 283d a815 aebd
000003c0: 5222 123d 7a32 54bc 6c07 0e3c 84a2 2d3d
000003d0: 9729 97bc 6360 ba3d 18e6 56bc 7510 81bd
000003e0: c8f0 82bb 6462 fb3d aa01 fd3d 76f7 3a3e
000003f0: e8c8 d13d 4757 213c 2adb ce3d 7bb5 66bc
0.009873854 -0.056650754 0.15073615 -0.07654343 0.08033926 -0.049556118 -0.11640765 -0.13942659
-0.007975267 0.056813262 -0.0897161 0.23804523 0.046855487 0.07125845 0.128312 0.084318586
-0.024781419 -0.07346768 0.08180144 -0.032252084 0.13566671 0.04099486 0.15148287 0.012292189
0.06647012 -0.1361681 0.06240479 0.11196943 -0.022303525 -0.09135558 -0.011873446 0.08917014
-0.02711349 0.04147627 0.0665735 0.066607796 -0.06589389 0.110328384 0.00060316327 0.085745946
-0.01862381 0.08232933 -0.039248217 0.11576544 -0.04820093 0.17000313 -0.07125962 -0.044344716
0.18566184 -0.14924426 0.06973841 0.1399257 -0.010126691 0.027826674 -0.023952262 -0.058906022
0.16074519 -0.15925422 0.044694163 -0.0060323006 0.16651095 0.06235966 0.11787452 0.1866046
0.09581645 0.043526582 0.11636681 0.1253825 0.10325145 0.19186851 0.014153549 -0.011342914
0.21518463 -0.00060184137 -0.11343632 0.18428452 -0.07620397 0.1110164 0.11194483 -0.06718709
-0.02346788 0.0022634652 0.14373448 0.0039222217 0.045045927 -0.059941594 0.23890792 0.00046028962
0.03430255 -0.11103224 0.1998806 0.17103586 0.13458368 0.10740274 0.045367956 -0.020263024
0.054932848 -0.04484204 0.091124326 0.0360832 0.058224633 0.3024847 0.10400369 0.1503715
0.077242665 0.08535819 0.059269916 0.22185442 0.18473497 0.18278988 0.17726946 -0.02077557
0.033414766 0.15699787 0.06865968 -0.05478049 -0.104628235 0.029221592 0.018195834 -0.010383172
0.04796695 0.25542963 0.15937522 0.16149935 0.20740177 0.11593376 -0.034650847 0.064076655
0.02860226 0.18334699 0.05286278 0.11219878 0.18559793 0.057492252 0.06607807 -0.017395228
0.011904926 0.06851092 -0.13613513 0.024386164 -0.08775906 0.08434333 0.1101685 -0.023752803
0.06718797 0.103059895 0.10775667 0.21661207 0.12536974 -0.043654397 0.22939372 0.034622863
0.19998078 0.06554078 0.1408804 -0.10211052 -0.0031834086 0.046098594 0.075732104 -0.0073296255
0.0662657 0.05951182 -0.04030522 0.037282925 -0.062278148 -0.019537607 0.15871176 0.025611121
0.19392678 0.09958773 0.10514942 0.15999828 0.09927623 0.045816552 -0.021307684 0.03599254
0.10890274 0.014057605 -0.073256284 0.1410829 0.01963787 0.05487746 0.14498082 -0.064078495
0.05981501 0.09589603 -0.0033984263 0.12458461 0.09726852 0.010158144 -0.043941285 0.011317282
0.06298213 0.079264954 -0.015168433 -0.043105558 0.17173626 0.038154043 0.20288369 0.0042773094
-0.08990686 0.04143856 0.05690318 -0.008643038 0.07782482 -0.015023729 0.03908919 -0.028791979
0.18182038 0.009625767 -0.0057053375 0.07056077 0.05909606 -0.018718952 -0.0065203933 -0.033728264
-1.8306491e-05 0.066808395 0.031885114 -0.09553962 -0.11134705 -0.018583136 -0.04617335 0.12668294
0.123836696 -0.06575251 -0.058437493 0.025177656 0.008618106 0.04066487 0.16182789 0.13779184
-0.005577566 0.10145684 -0.033283204 0.11862541 0.09542368 0.047328938 0.041206796 -0.08500224
0.03567726 -0.012951488 0.008668762 0.042391315 -0.018452449 0.091004156 -0.013116382 -0.06301967
-0.0039959885 0.12274626 0.12353833 0.18258461 0.10243398 0.009847469 0.10100396 -0.014081354

sequential/conv2d_2/Conv2D f4 [16, 3, 3, 16]
00000000: de04 ecbb 088b c03d 8ca6 3d3c 0093 97bd
00000010: 64f4 64bd 9072 fdbd b5a9 3dbd 2d59 433e
00000020: 6ddf d7bd 909f 0bbd a1ac 18be 41f2 923d
00000030: cbc3 d03d 6eeb da3d f04e 14be 8167 1cbd
00000040: 82e5 10be f1e7 413e d3ea dfbd 2ba0 8cbd
00000050: ebda acbd d0cd 883d 0dd9 063e 921a f538
00000060: 7587 0c3e 350c 733d 83f1 573d c751 44bd
00000070: 4228 2d3e 1179 01be d700 573d d239 383e
00000080: d543 813d 60a7 b5bd 7e59 bcbc b9b3 9cbd
00000090: a37a 40be c6a1 22be 416c 6fbc 5799 eb3d
000000a0: 9cbd d9bd e968 02be 8888 8a3c aa0d 70bd
000000b0: 45bc 02be 0e7c 03be a717 0cbe b960 d8bd
000000c0: 4965 023d 730f 8abd 01b3 ddbd 3089 f63d
000000d0: 180f 2e3e 1433 113e 2565 f33c 1236 a0bd
000000e0: 3f2b b9bd 6a23 bd3d 23aa ea3d 3f9c 8f3d
000000f0: 116d 0a3e adc9 c9bc f5d0 b13d e354 59bd
00000100: 67b6 80bc 548a dd3c bdcb 683d bb85 53bd
00000110: e5aa 8f3d 8854 17be 31ad 0c3e cf08 503d
00000120: 7335 c8bd a0df ca3d 280c aa3d a7af 453d
00000130: 643b 91bd 7b05 163d 5d5a 6f3d a739 dfbd
00000140: f121 483c 7566 983d 6f62 a53d fc08 49bc
00000150: b200 b3bd a556 01bd dd62 823d 7037 223d
00000160: b1f0 05be 047b 5c3d 1bc3 e3bd 0dff 453b
00000170: fa2a e63c d1f7 c73d df38 243d d4f9 ed3d
00000180: a1c3 ce3d ab8b c0bd 0c84 f43d 81f0 9b3d
00000190: 02a2 443e cd0d 2e3d 4c28 97bd 12da e33b
000001a0: 1ea3 053e 4d4c a23d bb98 533d fdd6 73bc
000001b0: 1b5d 52bd 28f1 3d3d fb01 e83b c6dd 3bbe
000001c0: a99a c0bd 29b7 763d 566f d9bd e10d dc3c
000001d0: 8751 443e 28f3 873c fdcc 11be 4890 013d
000001e0: 3ebf 2f3d f480 01bc 3698 07be 9419 573c
000001f0: 8d7c 063e 0ef8 e43d 1e99 c23d a15d 8bbb
00000200: 599d bd3d 5b1c 103e 29b4 e03d 071b fc3c
00000210: 4e48 063e 793a 243d c6d1 e8bd d53f 45bc
00000220: 3f3a 83bc 3210 a63d 323d 54bd 4797 86bb
00000230: 0333 0fbe ba07 f0bc 939e e8bd 790d 9a3d
00000240: 1149 e83d 2ea9 053e 86b7 0f3e a7ff ba3c
00000250: 4abd 31bd df85 4f3d d403 6d3d 7ba4 b7bd
00000260: 5334 7f3d 4264 7fbd d775 ed3c 04df 7fbd
00000270: 283b 653d 76b4 27be 6bec 243e e799 353e
00000280: 05a5 cb3d 7169 9c3d e85e 09be 156f e63c
00000290: 4d97 25bd 3461 2ebe cfc4 093e 7ecc b4bd
000002a0: 368b 97bd e2fd a4bd 2732 1d3e dcd4 7d3d
000002b0: 0781 13bd ef36 353d 727d e03d 3080 4d3d
000002c0: e2fe a2bc f1e2 393e 918c ff3d 3b81 c4bb
000002d0: 5169 b3bd cc2a b1bd 3306 5d3e 9273 e33d
000002e0: e193 0fbe 4e68 e93d e239 09be 3594 54bd
000002f0: b17d 053e 9d2f 04bd 7c46 c8bc 1e13 133e
00000300: 8690 cabd ed7a 1ebd c7db f83c 8b73 ffbd
00000310: a02b 17be f59d b13d 8253 ccbc de2c 993d
00000320: c285 083e 75ed 9abd 56fa be3d 2e61 bf3c
00000330: 840d 8fbd f25c 9cbd 60d1 1abe 46a0 303e
00000340: 67f9 a0bd df65 1d3e a4c0 ebbc 9584 5dbb
00000350: 61f3 d33d cd11 1fbe 5492 8bbd fe1a acba
00000360: 3fd8 6e3d 5574 ba3c 883a bd3c 223b e3bd
00000370: e7d8 fd3c bbe7 8cbd 6a26 c03d 2499 7ebd
00000380: 7244 c23d 3df4 57bb 115c d3bd f860 e53d
00000390: bab6 473c 0e59 c33c cf5f e0bc b506 6c3d
000003a0: 532c 0e3d ac8d 03be 05fd e8bd 7074 8fbc
000003b0: 05a1 a53d 43c8 95bd 8f71 b0bc 960a 033e
000003c0: f087 d53d ec85 aebd 1677 e7bb 7272 60bd
000003d0: 45b0 a03d e313 2b3d 4f48 c23d f12c 093e
000003e0: 388c a6bd 1b37 e7bd 33d3 233e 4275 003e
000003f0: 6281 8dbd d07d 45bd b817 c0bd 7a70 e83c
-0.0072027287 0.09401518 0.011575352 -0.07401085 -0.05589713 -0.12375367 -0.046304423 0.19076987
-0.10540662 -0.034087718 -0.14909603 0.071751125 0.101935945 0.10689436 -0.14483237 -0.038184647
-0.1415005 0.18936135 -0.10933461 -0.06866487 -0.08440193 0.066798806 0.13168736 0.000116874595
0.13723548 0.059337813 0.052720558 -0.04792955 0.16909888 -0.1264384 0.052491035 0.17990807
0.06311766 -0.08869815 -0.022991892 -0.07651467 -0.18796782 -0.15882024 -0.014613212 0.11503857
-0.10631868 -0.12735333 0.016910806 -0.05860678 -0.12767132 -0.12840292 -0.13680898 -0.105653234
0.031834874 -0.06741228 -0.10825158 0.12037885 0.16997945 0.14179641 0.029711315 -0.07822813
-0.09041452 0.0923527 0.11458232 0.070122235 0.13518168 -0.0246323 0.086824335 -0.05305947
-0.015711976 0.027043499 0.056834925 -0.051641207 0.070150174 -0.1477834 0.13737942 0.05078965
-0.0977582 0.09905934 0.083031 0.04826322 -0.07091406 0.03662632 0.058435787 -0.10899668
0.0122151235 0.07441417 0.08075415 -0.012270208 -0.08740367 -0.03157677 0.06366513 0.03960365
-0.13080098 0.053828254 -0.11121198 0.0030211837 0.028096665 0.09764064 0.0400933 0.116199166
0.10095907 -0.094016396 0.119392484 0.07614232 0.19202426 0.04249363 -0.07380733 0.0069534862
0.13050506 0.079247095 0.051659327 -0.0148828 -0.051358324 0.046372563 0.007080314 -0.18346319
-0.09404499 0.06023327 -0.10616939 0.026862087 0.19171725 0.016595438 -0.14238353 0.031631738
0.042906992 -0.00790428 -0.13241658 0.013128657 0.1313345 0.11180125 0.09501861 -0.004253105
0.09258527 0.14073317 0.10971863 0.030774606 0.1311352 0.040094826 -0.11368136 -0.0120391445
-0.016018985 0.08108558 -0.051816173 -0.004107389 -0.13984303 -0.02930056 -0.11358371 0.07522101
0.11342061 0.13052818 0.14034852 0.022826983 -0.04339341 0.05066478 0.05786498 -0.08966919
0.06230576 -0.062351473 0.028986854 -0.062468544 0.05596462 -0.16377434 0.16105811 0.1773449
0.09943584 0.07637299 -0.1341511 0.02812914 -0.040427495 -0.17029268 0.13453983 -0.08828066
-0.07399599 -0.08056237 0.15351163 0.061970577 -0.036011722 0.044241842 0.10961427 0.050171077
-0.019896928 0.18152978 0.12477983 -0.005996851 -0.08760322 -0.08650741 0.21584396 0.11106028
-0.14021255 0.11396848 -0.13400987 -0.051899154 0.13036229 -0.03227197 -0.024447672 0.14362761
-0.09890847 -0.03869145 0.030378236 -0.1247321 -0.14762735 0.08672706 -0.024942163 0.07479261
0.13332275 -0.075648226 0.093250915 0.023361769 -0.06985 -0.076349154 -0.15118933 0.1724864
-0.0786007 0.15370892 -0.028778382 -0.003380095 0.10349155 -0.15534134 -0.06815019 -0.0013130603
0.058311697 0.02276055 0.023099199 -0.11095263 0.030987216 -0.068801366 0.09382327 -0.062157765
0.09485711 -0.0032951974 -0.10320295 0.11200136 0.0121895615 0.023846176 -0.027389435 0.057623584
0.03471024 -0.12847012 -0.11376385 -0.017511576 0.08087353 -0.073135875 -0.021538524 0.12797007
0.10426319 -0.08521637 -0.0070637567 -0.054796644 0.07846121 0.041767012 0.09486448 0.1339605
-0.08132213 -0.112898074 0.15998535 0.1254473 -0.069094434 -0.048215687 -0.09379524 0.028373946

sequential/dense/BiasAdd/ReadVariableOp f4 [128]
00000000: e56d c9bb e0fd a8bc cf44 c93d 9333 e4bc
00000010: 4b79 32bd 3bec 8dbc c326 80bd 3061 bc3d
00000020: 6629 16bd 9e95 75bd 8a0c 55bd 24fc 67bd
00000030: ec9d debb 3201 a1bc e0a7 f2bc 32ae 52bd
00000040: b233 adbd a5e4 21bc e8a2 c33d 3de3 30bd
00000050: ad23 e5bb 991a 5ebd 1d96 13bc c114 a7bc
00000060: 5f5e abbb c403 c33d ba4b cc3d d966 e0bb
00000070: 03f0 81bd ae84 b4bc 3b83 70bd 4ecc 4fbd
00000080: 99c9 cabb 797d a73c 837c 87bd 06e0 babc
00000090: 628d fcbc 8c12 34bd 9216 32bc 0152 23bb
000000a0: ac80 e5bd 30dd 10bc 283e c8bc e0c8 dbbb
000000b0: 01a9 7abd c57f 01bc 4fb4 78bc ac2a 45bd
000000c0: 8fee 78bd 48c7 69bc 46ce 89bd c228 8cbc
000000d0: e076 86bd b567 b9bc 2d72 1fbc 6170 1cbc
000000e0: 330a ddbb 4766 58bd 71cd 5bbc 154d cebb
000000f0: 98ee 183d d2d2 81bd 5fce 6ebc 7929 d4bc
00000100: aed1 cebb 8a79 0e3e ad9d ccbb 5efd 37bc
00000110: 624d 5dbd e82b c7bb 78f7 f2bb a959 17bc
00000120: facd d3bb 8811 f0bc abcd 3cbd 7c2a 19bc
00000130: 5555 27bd ff6a e83d e754 0ebc 6196 14bd
00000140: e2b9 d03d ff07 72bd fdbc 1fbc 1f57 bb3d
00000150: 3e92 8dbd 5af3 35bc 8c23 3dbc 0a45 8abd
00000160: f18f 2cbd e08c 20bd 2a5e a33d 46d0 acbd
00000170: 7246 bb3d 52ac 6bbd 9620 90bb aaed febc
00000180: b7f0 54bd 339f 8fbd 14ea 29bd a519 be3d
00000190: 6ceb b33d 0657 3fbc 52a4 bcbd 5ac4 06bd
000001a0: c1d6 7cbd 34d6 eabb c643 5cbd 5412 15bd
000001b0: 185e cd3d d948 ebbb 0309 c03d 7b6f c73d
000001c0: f3ae cbbb 0d65 5abd af60 6dbd 74b7 62bd
000001d0: 81f9 5abd af52 4ebc 2d65 35bd 8028 cabb
000001e0: 1366 0cbd 0e89 35bc 26d3 2f3a 1a26 87bc
000001f0: 2007 babc 4d2e 8fbc a4e3 03bc 5fa5 edbb
-0.0061471337 -0.02062887 0.09827577 -0.027856624 -0.043572705 -0.017324558 -0.06257393 0.091982245
-0.036660574 -0.05995714 -0.05201391 -0.056636944 -0.006793728 -0.01965389 -0.029621065 -0.051435657
-0.08457126 -0.009881173 0.09552556 -0.04318546 -0.0069927783 -0.054224584 -0.009007958 -0.020395638
-0.005229756 0.095222026 0.09975381 -0.006848198 -0.06344607 -0.022035923 -0.0587189 -0.05073195
-0.006188583 0.020445572 -0.066155456 -0.0228119 -0.030829135 -0.043963 -0.010869639 -0.0024920704
-0.11206183 -0.008841798 -0.0244437 -0.006707296 -0.06119633 -0.007903998 -0.015179708 -0.0481364
-0.060774382 -0.014268704 -0.06728797 -0.017109279 -0.06565642 -0.02263246 -0.0097318115 -0.009548278
-0.0067456006 -0.052831914 -0.01341568 -0.00629581 0.037336916 -0.06339039 -0.01457557 -0.025898682
-0.006311617 0.13913551 -0.0062443824 -0.011229841 -0.054028876 -0.006078232 -0.0074147545 -0.009237685
-0.0064637633 -0.029305235 -0.046094578 -0.009348508 -0.040852863 0.11348533 -0.0086872345 -0.036276225
0.10191704 -0.059089657 -0.009749648 0.091474764 -0.06912659 -0.011105383 -0.01154412 -0.067514494
-0.04212946 -0.03919685 0.07976945 -0.084381625 0.09144296 -0.057537384 -0.004398416 -0.031119186
-0.051987376 -0.07012787 -0.041483 0.09282235 0.087851375 -0.011678463 -0.09211029 -0.0329021
-0.061728243 -0.0071666483 -0.05377557 -0.036394432 0.100277126 -0.007180315 0.09376719 0.0973806
-0.006215924 -0.053319026 -0.057953533 -0.055350736 -0.0534606 -0.0125929555 -0.044285942 -0.0061693788
-0.034277033 -0.01108004 0.0006707184 -0.01649766 -0.022708476 -0.017478133 -0.008049879 -0.00725238

sequential/dense/MatMul f4 [128, 1600]
00000000: 2952 0c3c 9f29 00bd 3c0c 36bc 1a91 b23c
00000010: 8c08 9e3c bc51 ed3c ec79 89bd 90cf 583c
00000020: 0cd3 f8bc 682f fb3c c3d2 503c 86c7 35bd
00000030: 616d 4fbc 9636 423d 10c6 843c f5d4 80bd
00000040: 11bf 69bc 16d2 80bd a783 253d 8084 08bd
00000050: 9fe9 92bc 939b 44bd f133 4b3c 5fcf e8bc
00000060: 9355 423d a8fe 2cbc 15c4 2d3c fb57 213d
00000070: ae2b 42bd 89aa fcbb e417 13bb 2bff 343d
00000080: 532b 0c3d eeac 4738 5acd e83c 8132 cbbc
00000090: 8945 1ebd b992 13bc ce68 cc3c 8e27 493d
000000a0: af05 f9bc 7862 853c 3d7c 11bd a5a8 3b3d
000000b0: b35a 64bd 1aa1 60bd 9d11 85bd bcbc 81bd
000000c0: 71de 4ebd ba3a d03c 85ce 5e3d 909b 173c
000000d0: 69b7 d23c 8755 4cbd 73b0 ae3a fd0a 89bb
000000e0: 8e29 dcbc a546 25bc d54f 78bc e6f4 2fbd
000000f0: 34ab 84bd cef7 febc ce45 4bbd a802 2dbc
00000100: a0a0 323d 6d62 193d 3e73 9f3c 456a 5c3d
00000110: 8018 fe3c 24bf 003d 2f21 b83b dfd7 41bd
00000120: 31bb 583d b038 063b d512 20bb f2db 45bd
00000130: 91a7 863c 4533 78bd c37e 563d 1bc4 3dbc
00000140: abac 32bd de17 7dbc 3859 29bd 65b3 253d
00000150: e410 69bd 8799 ae3c e6d5 11bd 1f29 563d
00000160: 36f7 f63c e80f 43bd c25e f6bc c09e 2cbc
00000170: 23ab 09bb bf8b 34bc cca0 78bc 754a 163d
00000180: 39b2 6abd 0d7a 4c3c f7ec 413d 8d1a 3f3d
00000190: 8b70 173d 2aaa 0a3d 91f2 5d3d ca2e 323d
000001a0: ed47 be3c 2b27 63bc 097e ff3c bfdb 183d
000001b0: 355f c4bc 167b d1bc 70ba 43bd 1ac8 3dbd
000001c0: 6593 5ebd c8b5 37bc f1b5 463d f5fe fe39
000001d0: d807 42bd fe72 cfbc 9a31 f23c 9f71 f9bb
000001e0: 5259 343d 891a e6bc 8f2f 80bd 74bf 0abc
000001f0: 0d3b 403d 5538 743c db7c ffbc 47c3 05bd
00000200: 8457 50bd 47df 073d d2a4 d13c 4f03 18bc
00000210: 7d9b e83c 9481 f4ba ea70 4ebd c53b 31bd
00000220: 628b 933c c316 863c b062 093d bac2 c53c
00000230: 4aa4 f7bb d583 8c3c 1d84 11bd 580b 52bc
00000240: cbf1 c6bc 9911 1bbd 3ae5 febc 1bf2 043d
00000250: 96bf c5bc b366 2dbc c5f1 96bc ebb3 debc
00000260: 62cb 89bd fe4a 403b 4914 0e3d 83c5 6a3d
00000270: 21bc 303d 0e11 d73c 4f3f f83c 1961 813c
00000280: 4dc7 4a3d 7e81 7bb9 d42f 54bc 4a17 d63c
00000290: 8661 78bc cb96 273d cfac d6bc cac7 df3c
000002a0: 4b1c e73b c07c d7bc cb6e 87bd bdb6 4e3d
000002b0: 7da2 0cbd 759c 73bd c921 543d f2a4 ab3c
000002c0: 3025 ebbc 13df 223d 09d4 623d 3c36 363c
000002d0: 1e0e 6ebd 5afc 2e3d 0b29 35bc 9ac6 693b
000002e0: 0370 0e3d d1a9 5abd e2b9 0fbd 76b2 a73c
000002f0: 5e97 0b3d 5351 f83c c5db 3b3d 47b8 ab3c
00000300: 130e 03bd 2440 62bd b5cc 6cbd 2517 453d
00000310: e44b 13bc 74ba 1dbd fda0 2cbd e81a a7bc
00000320: 734f 163d 171a a338 d7d3 313c f0eb 34bb
00000330: f321 1ebc b6a2 c1b9 c117 7cbd b076 47bc
00000340: bd47 d6bb 8856 d73b 54e7 83bc 3cd0 49bc
00000350: 9fdf 333d bc9e cfbc 6bd7 c63c 517d 9d3c
00000360: cb73 8bbb 06e3 823c 7038 5fbc c244 a43c
00000370: 9348 653c 43fa f4ba 01db 0d3d 5303 5fbb
00000380: 208e 37bd f260 313d 2427 27bd 9074 64bc
00000390: af97 d9bc b1c0 f63c 5569 11bd 346a 18bd
000003a0: 006d d7bc 3348 0a3d 44fb 173c e79f 1b3d
000003b0: b40a 13bd 53b6 4abc c30e 493d 3129 d3bc
000003c0: 6b63 1d3d 0a67 f03c 3689 ef3c a458 393c
000003d0: 885a c63b 9f5f 0ebd 02be 74bd 7f67 eabc
000003e0: 0da3 233d 6c6b 043c fc23 ffbc 149d 6cbd
000003f0: b1de 0ebd 636e 9ebc 807a f2ba 2c1a 42bd
0.00856451 -0.031289693 -0.011111315 0.021797705 0.019291185 0.028969638 -0.06712708 0.0132330805
-0.030374072 0.030662253 0.012745562 -0.044379734 -0.012660355 0.04741534 0.016207725 -0.06290618
-0.014266745 -0.06290071 0.040408757 -0.033329487 -0.017933665 -0.04799993 0.0124025205 -0.028419195
0.04744489 -0.010558762 0.010605832 0.039390545 -0.047404937 -0.007710759 -0.002244466 0.04418866
0.034221005 4.760635e-05 0.028418232 -0.024804356 -0.038640533 -0.009007149 0.024952319 0.049109988
-0.030398218 0.016282305 -0.035518873 0.04581513 -0.05575056 -0.05484114 -0.064975 -0.06334826
-0.050505105 0.025418628 0.05439617 0.009253398 0.025722222 -0.049886253 0.0013327732 -0.004182218
-0.026875284 -0.010087644 -0.015155752 -0.042958163 -0.06477967 -0.031124022 -0.049627118 -0.010559715
0.043610215 0.03744738 0.019464131 0.053812284 0.031017542 0.031432286 0.00561919 -0.04732501
0.052912895 0.0020480566 -0.0024425287 -0.04830546 0.016437324 -0.06059577 0.052366983 -0.0115824
-0.0436217 -0.015447585 -0.04134485 0.040454287 -0.056900874 0.021313442 -0.03560438 0.05228531
0.030147176 -0.04762259 -0.03007448 -0.010535896 -0.0021006546 -0.011019646 -0.015175056 0.0366921
-0.057298873 0.012480271 0.047345128 0.04665618 0.036972564 0.033853687 0.054186407 0.043501653
0.023227656 -0.013864319 0.031188028 0.03731894 -0.02397118 -0.025571387 -0.047785223 -0.04633341
-0.054339785 -0.011212774 0.048513357 0.00048636613 -0.04737076 -0.025323387 0.029564667 -0.0076124216
0.044030495 -0.028088825 -0.06259071 -0.008468498 0.046931315 0.014906009 -0.031187465 -0.032656934
-0.05086471 0.03317192 0.025591288 -0.009278133 0.028394455 -0.001865434 -0.050400652 -0.04326989
0.018010799 0.016368276 0.03354138 0.024140704 -0.0075574266 0.017152706 -0.035526384 -0.012820087
-0.024285218 -0.03785858 -0.031115163 0.032457452 -0.024139207 -0.010583567 -0.018425832 -0.027185401
-0.06728245 0.0029341574 0.034687314 0.057317268 0.043148164 0.02625325 0.030303625 0.01579337
0.049506474 -0.00023985465 -0.012950856 0.026134152 -0.01515997 0.04091529 -0.026205448 0.027316947
0.0070529333 -0.026304603 -0.06612929 0.05046724 -0.03433465 -0.05947538 0.051790033 0.020952675
-0.028704256 0.03976352 0.055377994 0.011121329 -0.058118932 0.04272113 -0.011057149 0.0035671354
0.03477479 -0.053384606 -0.03508938 0.020470839 0.034079902 0.030312216 0.045863885 0.020961894
-0.031995844 -0.05523695 -0.05781241 0.048117775 -0.008990262 -0.038507894 -0.042145718 -0.020398572
0.036696862 7.777305e-05 0.010853729 -0.002760645 -0.009651649 -0.00036933058 -0.06154609 -0.012174293
-0.0065393136 0.0065715946 -0.016101517 -0.012317713 0.043914434 -0.025344245 0.024272641 0.019224795
-0.004255747 0.015977394 -0.013624296 0.020052318 0.013994354 -0.0018690306 0.034632687 -0.003402908
-0.044813275 0.043305345 -0.04080881 -0.013943806 -0.026561586 0.03012118 -0.035500843 -0.03721066
-0.026297092 0.03376026 0.009276215 0.03799429 -0.03589888 -0.012372571 0.049086343 -0.025776478
0.03842489 0.029346008 0.029240232 0.0113126375 0.0060532726 -0.03475916 -0.059751518 -0.028613804
0.03995042 0.008082252 -0.031145088 -0.05776699 -0.034880344 -0.019339746 -0.0018499643 -0.04738824

sequential/dense_1/MatMul f4 [1, 128]
00000000: 9888 443d 3d2d 40be fa0e e83d 68ff e1bd
00000010: 1b9e 22be 57a4 e8b9 950d 4fbe e9ee 313e
00000020: 36cb 07bd 2f01 43be fcd6 83be 9ef0 25be
00000030: dbb5 6a3d 6ca9 3e3a 8fb2 adbe 53c0 06be
00000040: 32e8 91be 9cd5 403e e300 1d3e 5b49 a1bd
00000050: d27c 523d 6d68 10be 1322 9fbc 792a 80bd
00000060: f15a 253e 348d 933e 07d5 333e b83f 893d
00000070: afa0 3abe 0bca 433d 1935 94bd f78f 8ebe
00000080: 4db9 af3d db2a 973e dc1f 2dbe a3cd d2bd
00000090: 93a4 0abe ddcb 94be da89 1a3e 0a56 843c
000000a0: 82bf c2be 0bfb 973d 5c2f 5cbc f2b8 4d3e
000000b0: 07ee 36be aea0 093e 26bb 1dbb 7a25 e9bd
000000c0: d387 d4bd 4134 f3bc 7645 24be d288 683d
000000d0: 5fe4 59be de6a efbd 0d7c 35be 70b3 973d
000000e0: 319d d83d 146a 3fbe 01a2 1fbd eda4 903a
000000f0: faf4 d23d fe80 36be 4327 1a3e d4b0 e2bd
00000100: e076 923d bc21 f03d 1fc9 073b 4207 363e
00000110: 7c7c 97be 1430 0b3d 8d93 383e 7599 ac3d
00000120: 4944 513e 6137 d53b 31fa 4ebe 73b4 03be
00000130: e129 2abe 6e04 0d3e b116 e83d cc99 903c
00000140: f672 6a3e f052 01be 787c 11bb b01a 513e
00000150: 5829 23be 04e6 283e 5cd2 483d 5841 a1be
00000160: 3a1f 5bbe 3712 8ebd 01d8 7b3d 75cf a6bd
00000170: f922 3e3e 8314 4cbe 0a93 033e 596e 293d
00000180: 3f77 7dbe 5b2c 38be 1af0 d1bd eb61 1e3e
00000190: 5407 883e 9534 fabd b591 ccbd 6288 0ebe
000001a0: 124b 4dbe a193 253e b7fd e2bd 81bc 18be
000001b0: 7585 903e dfcd 0f3d f99c 823e 26c0 9a3e
000001c0: ad90 a83d eb92 6fbe 7db9 88be 337f a6be
000001d0: 37cd 56be d4bf 513e ec02 62be 0991 4b3e
000001e0: 0729 70be 935a 18be a507 023d dc3a 2fbe
000001f0: ba7d f83d f289 333e 4ca8 de3d 6170 263e
0.04798183 -0.18767257 0.113309816 -0.11035043 -0.15880625 -0.0004437293 -0.20220025 0.17376293
-0.03315278 -0.1904342 -0.25749958 -0.1620507 0.057302337 0.00072731706 -0.33925292 -0.13159303
-0.28497463 0.18831486 0.1533237 -0.078753196 0.05138857 -0.14102335 -0.019425428 -0.06258101
0.16147973 0.28818667 0.17561732 0.067016065 -0.18225358 0.047800105 -0.0723669 -0.2784421
0.08580265 0.29524884 -0.16906685 -0.10293128 -0.13539343 -0.29061785 0.15091649 0.016154308
-0.38036734 0.074209295 -0.013439026 0.20090082 -0.17864238 0.134402 -0.0024067848 -0.11384101
-0.10377469 -0.029688003 -0.16042122 0.056771107 -0.21278523 -0.11690305 -0.17723103 0.07407272
0.10576857 -0.1869281 -0.03897286 0.001103548 0.10300632 -0.17822644 0.1505404 -0.110688835
0.0715158 0.11725184 0.0020719243 0.17776206 -0.29587162 0.033981398 0.18025036 0.08427707
0.20436205 0.006506846 -0.20212628 -0.12861805 -0.16617538 0.13771221 0.11332453 0.017651461
0.22895417 -0.12629294 -0.0022199433 0.20420337 -0.1593374 0.16493994 0.04902874 -0.31495166
-0.2139863 -0.06937068 0.061485294 -0.08145038 0.18568029 -0.199297 0.1284906 0.041365
-0.2475252 -0.1798567 -0.10250874 0.1546704 0.2656809 -0.122170605 -0.09988729 -0.13919213
-0.20048168 0.16169597 -0.110835485 -0.14915659 0.2822682 0.035108443 0.25510386 0.30224723
0.0823072 -0.23395889 -0.26704016 -0.3251892 -0.20976721 0.20483333 -0.22071427 0.19879545
-0.2345315 -0.14878301 0.03174557 -0.17112297 0.121333554 0.1753309 0.10871944 0.16253807
